Torch-Projects/saved_model/char-rnn-cls-name.pt (torch_old, 114615 bytes, 4 tensors)

weight f4 [128, 185]
000000 93 b9 2e 3d 1a 0a 74 3c ff 59 7a be f2 b5 b7 bd
       0.042657446 0.0148949865 -0.24448393 -0.0897025
000010 1e 76 ec bb 88 d2 2b b9 f1 bd 18 bd 4b 47 d8 bd
       -0.007216229 -0.0001638626 -0.037290517 -0.10560473
000020 c7 48 40 3d 32 de 01 3d 38 32 ab 3e 05 4e bd 3c
       0.046944406 0.031706043 0.3343675 0.023108492
000030 9b 23 6b bd 10 32 90 be 77 a4 03 3c 23 cb 94 bd
       -0.057407003 -0.28163195 0.008034817 -0.07265308
000040 1f 31 9b 3c d6 0b 66 bc 6f 45 db bc 14 a4 c2 bc
       0.018944321 -0.014040908 -0.026766507 -0.02375988
000050 64 8c 90 be 52 51 a8 bc 85 6e 0b 3e 4e ca 45 3d
       -0.2823211 -0.020546589 0.13616379 0.048288636
000060 57 4a 64 3d 0e 77 39 be 5c 17 c2 bd f3 ac 7f bd
       0.05573496 -0.18111822 -0.09477112 -0.062420797
000070 aa e9 ca 3d 2d 10 a6 bd c7 da 2b ba 99 b1 20 3e
       0.09907849 -0.08108554 -0.00065557327 0.15692748
000080 71 62 ec 3d bc b2 01 3e ac 9c d1 bd b0 e8 3e 3e
       0.11542214 0.12665838 -0.10234961 0.1864345
000090 b3 b0 38 3d 93 55 db 3d 1f 5f 9d 3d 66 79 61 bc
       0.04509039 0.10709681 0.076841585 -0.013761854
0000a0 9e e8 53 be bc 60 95 3c 76 2a ba 3d 24 c4 99 bd
       -0.20694205 0.018234603 0.0909013 -0.07508114
0000b0 cc 1f 01 3e 63 86 35 be 30 5f d7 bc 35 94 7e bd
       0.12609786 -0.17727046 -0.026290506 -0.06215306
0000c0 87 b9 6f 3e d5 90 2e 3e b6 f8 92 3d 53 43 0a 3e
       0.23410617 0.17047437 0.07176344 0.13502245
0000d0 e5 a6 04 3d 9e 0b 8b 3d 76 c9 16 3d d9 ce 86 bd
       0.032385726 0.06789325 0.036813222 -0.06582422
0000e0 18 2e 47 be 25 54 9b bd 6f bf 9e bd 97 17 a2 bd
       -0.19451177 -0.07584409 -0.07751357 -0.07914656
0000f0 de 0b 42 bd 4e f2 05 3d 0a bf a1 3c 7e 77 ab bc
       -0.0473746 0.032701783 0.019744415 -0.020931002
000100 a9 28 d9 bc 08 01 48 3d 46 ad 6e bd fc 2b 7c bd
       -0.026508646 0.04882911 -0.058270715 -0.061565384
000110 69 a5 3f bc 3d 96 57 bd ff b3 7b bd 17 0d 67 3c
       -0.011697152 -0.052633513 -0.061450955 0.014102242
000120 b0 de 8b bd da 47 fa bd 97 23 f2 3d dc 24 fe bd
       -0.06829584 -0.12220736 0.118231945 -0.12409374
000130 a4 8a 91 3c 27 85 ae bc e7 92 d6 bd 8a 62 95 bd
       0.017766304 -0.021303726 -0.10477238 -0.072941855
000140 fe 09 b5 bd b4 db 6d bd e2 8c 82 bd 30 4a 4c bc
       -0.088397965 -0.058070853 -0.063745275 -0.01246886
000150 83 8c 8d bd 04 c7 d2 bc 82 2b f4 3c a4 1e 13 3e
       -0.06911566 -0.025729664 0.029805902 0.14367157
000160 b0 a3 6b 3c d4 2e dc bc 76 3a bd bc 8e f1 09 3e
       0.014382288 -0.026877798 -0.023099165 0.13471052
000170 1e f9 88 bd d1 5d 7b 3d 11 76 ba bd 9e 42 cd 3d
       -0.0668814 0.061368767 -0.09104551 0.10022472
000180 c8 cc fc 3c f0 e7 bb bd c7 35 9c bc 8b 63 32 3d
       0.030859366 -0.09175098 -0.019068612 0.043551963
000190 25 7e b4 bd e7 1b fd bc 9c 46 31 3d 95 75 8f bd
       -0.08813123 -0.030897094 0.04328023 -0.07004849
0001a0 fd 6d a7 3b 0f ea 8a 3c 12 c0 c4 3c 57 9a 77 3d
       0.005109547 0.016957311 0.024017368 0.060449924
0001b0 e7 2f a3 bc 9a 65 e3 3c 67 ea 96 3d b5 53 b8 3d
       -0.019920303 0.027758408 0.073689274 0.09000341
0001c0 88 80 bd 3c 84 50 86 3d 7b 14 e3 bd 22 54 8c bc
       0.023132578 0.06558326 -0.11087891 -0.017129961
0001d0 22 a9 f2 bc af c6 68 bc 6d 84 b1 bd d2 0d cc bc
       -0.029621664 -0.014207526 -0.08667836 -0.024908934
0001e0 9a 94 60 bd 26 c2 da 3c 95 f6 dd 3c 49 bd 87 bc
       -0.054829217 0.026703905 0.027095119 -0.01656975
0001f0 29 1f 97 3c ed fa 8b bc cd 5f 6b bb c8 ba 58 bd
       0.018447476 -0.017087424 -0.0035915256 -0.052912503
000200 0e ef ca 3d f0 b6 28 3d 94 67 85 bc 95 c7 2c 3d
       0.09908877 0.041190088 -0.016284741 0.042182524
000210 ae 8b bd 3d 77 5c 0d bd 9b a4 29 bb cb b3 a1 3c
       0.092551574 -0.03451201 -0.0025885466 0.019739052
000220 12 c6 55 3d 44 ea 86 3d 40 a4 4a 3d 40 24 11 bd
       0.052190848 0.06587651 0.049473047 -0.03543496
000230 bd 6f 43 3d 7f 3b 2c 3e 23 31 88 3d b9 01 92 3d
       0.047713984 0.16819571 0.06649997 0.07129235
000240 f6 dc 9b 3d 78 62 8a bd b9 d9 be bd 04 5b ae 3d
       0.07610504 -0.06757063 -0.09318871 0.085134536
000250 62 4b 64 bc a6 23 02 3d 84 7c 20 3c 15 7e 91 bd
       -0.013933988 0.03177228 0.009795312 -0.07104126
000260 3b 82 be 3c 79 39 9d bd 9c 8d 54 3c 92 83 c8 bd
       0.023255458 -0.07676978 0.012973215 -0.0979072
000270 56 a2 9a bd 8e 57 0c bd 78 66 6b 3d 4a 0c 08 3e
       -0.075504944 -0.034263186 0.05747077 0.13285938
000280 0a 99 a4 3c a0 62 18 be 38 ef 90 3d 0d 8d 16 3d
       0.020092506 -0.14881372 0.07076877 0.03675561
000290 67 ff 91 3d 43 e6 73 3d f6 24 37 bd 25 da cc bd
       0.07128792 0.059545767 -0.044712983 -0.10002545
0002a0 f4 9d 91 3d 77 60 f3 3d e7 d2 18 3e dc 78 84 bd
       0.07110205 0.118836336 0.14924203 -0.064683646
0002b0 e7 2e b5 bd b1 01 47 bd f1 7d c4 bc 6d dc a3 bd
       -0.088468365 -0.048585597 -0.023985835 -0.08001027
0002c0 43 07 b9 bd 40 6d 0b 3d 20 5b 27 3d 77 5a 02 bd
       -0.09034588 0.034039736 0.040858388 -0.031824555
0002d0 f0 eb 0e 3d 1a 2b dc bd ea 4c e8 bc 4c 16 9c bd
       0.034892976 -0.107504085 -0.028356988 -0.0762144
0002e0 74 a1 e2 3d 33 28 8c bd 64 aa 16 bd ce 58 21 3e
       0.11065951 -0.06843605 -0.03678359 0.15756533
0002f0 28 97 62 be fd b1 e2 bd 88 a9 80 bd 67 de 68 3d
       -0.22127974 -0.11069105 -0.062823355 0.056852724
000300 7f a6 a3 3b c8 d4 28 3e 6e 82 45 bd 08 bf e4 be
       0.004994213 0.1648742 -0.04822009 -0.44676995
000310 8c 23 b5 bd f5 bd c0 3d 86 5b 50 bd 15 56 41 be
       -0.08844671 0.094112314 -0.050868534 -0.18880494
000320 8b db 39 3d 1d c2 44 3d 42 ee cc 3c 26 2a 86 bd
       0.045375388 0.048036683 0.025015954 -0.06551008
000330 78 4e 7f bd 6e fe d4 3d 1c 7a dd 3d 66 22 0a be
       -0.062330693 0.10400091 0.10814306 -0.13489684
000340 52 e9 ea 3d b1 b5 e0 bd ae 35 83 be 66 d0 16 bd
       0.114702836 -0.10972155 -0.25626892 -0.036819838
000350 ef f9 17 3d e5 48 b3 3c cb a8 52 3e 55 92 28 3e
       0.03710359 0.021885345 0.20572202 0.16462071
000360 91 9f 54 bd 7b d3 83 bd f5 c3 1a 3e 0f 69 c4 bc
       -0.051909987 -0.06436821 0.15113814 -0.023975877
000370 cc 57 d8 bd 2e 54 86 bd 54 f0 16 3e 0c 59 14 3e
       -0.10563621 -0.06559025 0.14740115 0.14487094
000380 c1 71 c9 3d 48 dd ae 3d 27 32 56 3d 73 ad 01 3e
       0.0983615 0.085383 0.052293923 0.12663822
000390 cb 53 42 3e ed 9e 1e ba cc ae 4e 3e 87 ad 6c bd
       0.18977277 -0.00060509035 0.20183867 -0.057782676
0003a0 76 d2 bb 3d b3 04 df bc 13 7b 3a 3d 11 75 cc bd
       0.091710016 -0.02722392 0.04552753 -0.09983266
0003b0 c2 41 35 be b8 b8 6c 3d a8 c1 5e 3d 02 fb 1b 3d
       -0.17700866 0.05779335 0.054383904 0.038081177
0003c0 c5 a5 80 bd 05 3d a2 3d 0b 43 2e bd 81 76 3f bc
       -0.06281618 0.07921795 -0.042544406 -0.011685968
0003d0 34 79 4d 3c a7 a6 23 3c 2c 7a a0 3d a7 dd 44 b9
       0.012541104 0.0099884635 0.078358024 -0.00018774589
0003e0 0d 65 f5 3b 18 08 85 3c 00 1f b5 3a df c6 a1 3a
       0.007488853 0.016239211 0.0013818443 0.0012342593
0003f0 15 f8 ef 3c 3e 74 03 bc ef 20 58 3d 13 58 86 bd
       0.0292931 -0.00802332 0.052765783 -0.065597676

bias f4 [128]
000000 01 4d 86 3d 14 e7 86 3c c9 c9 60 3b dc 7b 1e bd
       0.06557656 0.016467609 0.003429996 -0.03869234
000010 86 58 0d 3b aa 55 e6 bc 1f ce 37 3d 7c f5 1c 3e
       0.0021567657 -0.02811702 0.044874307 0.1532802
000020 64 79 83 3d 38 8f d5 bc 1f 90 00 be 50 15 f3 bc
       0.06419638 -0.026069269 -0.12554978 -0.029673249
000030 5c e6 80 bd 8c 1e ba 3d 60 25 b0 bd 9d f0 0a 3d
       -0.062939376 0.090878576 -0.08600879 0.033920873
000040 76 99 d6 3d 19 a3 8b bd 31 52 f8 3c c2 e9 cf bd
       0.10478489 -0.06818218 0.03031263 -0.10152008
000050 82 54 37 3c c2 f3 e2 3d 4e 04 dd bd 3d 8e 15 bd
       0.011189582 0.11081649 -0.10791837 -0.036512602
000060 88 0e 5e bd 25 c0 86 3d 60 75 c3 bd 47 49 08 3c
       -0.054213077 0.065796174 -0.09543872 0.008318252
000070 94 fa 8e bd e2 7c 74 3d 1c c9 3d bd 95 eb d0 3c
       -0.06981388 0.05968941 -0.04633437 0.02550296
000080 e6 3d 1d 3d bd e5 0e bd 8d d4 04 bd c8 e7 f4 bb
       0.03838911 -0.034887064 -0.032429267 -0.0074739195
000090 0f a0 9b 3d f3 34 cb bb d4 ab 0d 3d 1a fe ea bb
       0.07598888 -0.0062013804 0.034587696 -0.0071714045
0000a0 03 65 bb bd d4 05 0d 3d 21 d6 22 bc 84 52 87 bd
       -0.09150126 0.034429386 -0.009938748 -0.066075355
0000b0 0a 40 20 be 4c db 81 3c ea 52 08 be 6d b7 af 3c
       -0.15649429 0.01585164 -0.13312879 0.021449769
0000c0 69 e1 a1 3d 38 94 82 3d fc 9d 9c bc b1 5e e6 bd
       0.07904322 0.06375927 -0.019118302 -0.1124853
0000d0 2c 7e 5f 3c 2d 47 e5 bc 78 4e 97 bd ec cd 53 bd
       0.013640922 -0.02798804 -0.073880136 -0.051710054
0000e0 72 ff 08 3d bd 95 a4 bc ef d8 6f 3d 72 47 aa ba
       0.033446737 -0.020090932 0.058556493 -0.0012991263
0000f0 2b 92 dd 3b 91 d7 07 3d c7 0e ba 3d b8 81 fd bc
       0.0067618093 0.033164565 0.0908485 -0.030945644
000100 7e 38 07 3e 22 90 9e 3d d7 ae ea bd 41 9a cb 3c
       0.13205144 0.07742335 -0.11459129 0.024853827
000110 5c e0 49 be 31 82 60 3d d5 62 2b be 0b 7e d3 bd
       -0.19714493 0.05481166 -0.1673692 -0.10326775
000120 96 6e 30 be f4 6f d2 3c eb 4c 6c bc 99 06 f9 bd
       -0.17229685 0.025688149 -0.014422636 -0.121594615
000130 7a 1d 7b bb 7c 14 3e 3d 8c 90 f0 3a e1 d6 5f ba
       -0.003831713 0.046406254 0.0018353625 -0.00085387944
000140 a6 0c e8 3c 73 20 9f bd 8f 76 7c 3d 2e 34 6f 3d
       0.028326344 -0.07769861 0.061636504 0.05839937
000150 19 c9 a7 bd 5e 1c 54 3d c1 42 d1 3d c5 90 72 bc
       -0.08192653 0.051784866 0.102178104 -0.014805024
000160 73 23 25 bb 67 34 2d 3e 7d 75 a3 bd 29 90 70 3c
       -0.0025198131 0.16914521 -0.079813935 0.014682808
000170 22 77 19 be 59 61 5f 3d 03 f8 cb 3d a8 04 77 bd
       -0.14986852 0.054536197 0.09959414 -0.060307175
000180 c4 85 db bd 44 49 68 bd e0 5a 28 bd e1 42 ca 3d
       -0.10718873 -0.056710497 -0.04110229 0.098760374
000190 bd f6 71 bd 45 58 b6 bd 84 18 8d 3d e9 d1 a4 bd
       -0.0590732 -0.08903555 0.068894416 -0.0804785
0001a0 ff ce 1a be 77 b0 f8 bc f8 24 aa 3b 55 f2 3d bd
       -0.15118025 -0.030357582 0.0051923953 -0.046373684
0001b0 73 28 79 3d 30 ab b7 bb 54 b6 de bc 2a 85 4c 3b
       0.06082959 -0.005605124 -0.02718655 0.0031207302
0001c0 08 aa 5a bc 81 18 91 3d df 9e 14 3d 9f cd 1b be
       -0.013346203 0.07084752 0.036284324 -0.15215157
0001d0 fa b2 b4 3d 64 ba a2 3d 29 8a cc 3d 2a 66 e7 bc
       0.088231996 0.079457074 0.099872895 -0.028246958
0001e0 f6 e5 b5 3d bd 02 a5 3d 1e 43 a4 bd bb c8 3d 3d
       0.08881752 0.08057163 -0.08020614 0.04633401
0001f0 63 21 24 3c 64 bf bc 3d 9e 04 7c 3d ec 41 7c bd
       0.010017726 0.09216192 0.06152784 -0.061586305

weight f4 [18, 185]
000000 f8 35 63 be 70 9f b0 bd 74 cb de 3e 53 73 73 be
       -0.22188556 -0.0862416 0.43514597 -0.23774461
000010 a3 62 12 bf a7 a8 95 bd 13 15 04 3f db 14 6c 3f
       -0.5718176 -0.073075585 0.51594657 0.9221932
000020 6b 52 49 3e 34 9b ed bc b9 9e f6 be a6 d0 dc be
       0.19660346 -0.02900467 -0.4816797 -0.43127936
000030 ed 6b 01 3f 60 05 7c 3e eb c3 34 3e 55 9b aa 3d
       0.50555307 0.24611425 0.17652862 0.083304085
000040 0f 07 8a bd d7 96 e3 be 38 0b 16 bf ee 0d 63 be
       -0.067396276 -0.4445102 -0.5861087 -0.22173283
000050 17 5d 81 3f 70 cd ba bd 2a 15 14 be 38 81 0f bc
       1.0106534 -0.09121215 -0.14461198 -0.0087588355
000060 b9 49 e0 3c 29 25 90 be ac ca 43 3d b4 c1 cd bc
       0.027378904 -0.2815335 0.047800705 -0.025116779
000070 80 1b eb bc 3c d3 6f 3d d0 54 3d bd 44 3b 86 3d
       -0.028699636 0.05855106 -0.04622346 0.06554273
000080 d0 09 ee 3b 50 16 a3 3b b0 2e 63 bd 14 4e 84 3d
       0.0072643533 0.004977025 -0.055464447 0.06460205
000090 16 8a 04 3d c2 4f 81 bd 70 c4 31 3d 44 f8 4a bc
       0.03235825 -0.06314041 0.043400228 -0.012388293
0000a0 81 44 51 bd 48 4f eb 3c d9 8f 6a bd 8c e4 b3 3c
       -0.05109072 0.028724328 -0.05726609 0.021959566
0000b0 22 ae 83 3d a6 e6 89 3d 8d ca 88 bd a1 89 8d bd
       0.064296976 0.06733446 -0.066792585 -0.06911016
0000c0 19 83 1f bd 28 20 07 bc ce be 06 3d a0 05 a3 3b
       -0.038943384 -0.008247413 0.03289681 0.004975036
0000d0 fb f5 48 be 68 f7 31 bd e1 d3 42 3d 00 0b 45 ba
       -0.19625084 -0.043448836 0.047565345 -0.0007516593
0000e0 6c 91 32 3d 0f 80 d1 bd 2e 91 b6 3e 0a b0 dd 3e
       0.043595716 -0.10229503 0.35657638 0.4329837
0000f0 12 da 85 3d 47 4d 98 be 38 23 41 3e 41 d5 91 3c
       0.06535734 -0.29746458 0.18861091 0.017801883
000100 01 c0 c3 3e e3 ce 9c 3e ee 48 d9 be 22 83 5f 3e
       0.38232425 0.30626592 -0.42438453 0.21827367
000110 ef a2 ca 3e 49 77 17 be 03 3c ad be 1c 68 fb be
       0.39577433 -0.14791597 -0.33834848 -0.49102867
000120 4d 52 81 3e 25 83 74 3e 1e b1 26 3d 03 14 58 3e
       0.25258103 0.23878153 0.040696256 0.21101384
000130 82 70 f3 be 9c a2 24 3e fd d3 af bd d4 4a 0a be
       -0.47546774 0.16077656 -0.085853554 -0.13505107
000140 d3 b8 9e 3e 2d a9 3a 3d b3 b7 d7 3e 16 d9 87 be
       0.31000385 0.045571495 0.4213234 -0.2653281
000150 90 f4 3f 3e c9 9c 54 3d 2b 0e e6 3c 61 99 ff 3e
       0.18745637 0.051907334 0.028082928 0.49921706
000160 9a e9 26 bd a7 e4 cb bd 5b a2 bc be 98 28 b8 be
       -0.040750124 -0.09955721 -0.36842617 -0.3596847
000170 a1 f2 35 3e 4a 84 b6 3e 80 c2 fa 3d de 34 a5 3d
       0.17768337 0.35647804 0.12244129 0.08066724
000180 bb 5a e6 3e fc 19 27 be b3 6d d7 3d 6d 01 39 3e
       0.44991097 -0.16318506 0.1051897 0.1806695
000190 2c 93 75 3e 77 91 61 be 4f c9 4f be da 56 39 bf
       0.23981923 -0.22028147 -0.20291637 -0.7239815
0001a0 ca 97 52 bf ae 0d 2c 3e 94 75 b8 3e d7 22 72 be
       -0.8226286 0.16802093 0.36027205 -0.23646103
0001b0 74 28 0f bf 66 29 b8 be 94 18 b0 be 1f e2 92 3c
       -0.559211 -0.35969085 -0.34393752 0.017930089
0001c0 8b aa 18 3f af e1 b1 3e d9 7c 13 bd 66 aa de 3e
       0.5963523 0.34742495 -0.036007736 0.4348938
0001d0 c8 bc b5 be 30 cd b1 3d fa 37 30 3e d1 80 9b 3d
       -0.3549559 0.086817145 0.17208853 0.07592929
0001e0 6b 78 82 be ae 48 0b 3f 1a c9 17 3e 62 1c 23 be
       -0.25482497 0.54407775 0.14822808 -0.15928796
0001f0 4c 74 8f bd a8 18 52 be 39 63 02 bd 2e 75 ca be
       -0.07004604 -0.20517218 -0.031832907 -0.39542526
000200 1a 43 bd be 4d c9 8f 3e 55 59 a7 be 4e 74 22 bf
       -0.36965257 0.28083268 -0.32685342 -0.63458717
000210 41 1a 88 bd 6d d6 b3 3e 36 4d 3f 3e 9e dd 69 be
       -0.066456325 0.3512453 0.18681797 -0.22838446
000220 08 2f 07 3c bf 58 24 3e 52 24 87 3b 48 22 d2 3d
       0.008250959 0.16049479 0.0041242028 0.10260445
000230 78 6f 6d bc 6c 24 85 be 5a b5 b7 be 7f 96 e5 3e
       -0.014491908 -0.2600435 -0.35880548 0.44841382
000240 87 46 cf 3c f8 9a 98 bd 0e 53 42 3f 26 68 e1 be
       0.025302185 -0.07451433 0.7590798 -0.4402477
000250 eb 70 57 be 22 fd 43 bf 53 0b b6 3e 98 2e 6d 3e
       -0.21039169 -0.76558125 0.35555515 0.23162305
000260 f2 f1 12 3e 20 f8 65 bc 99 17 68 be f1 a1 45 be
       0.14350107 -0.014036208 -0.22665252 -0.19300057
000270 d4 04 37 3d d9 59 00 bd fe 67 15 bf 49 e9 f8 3e
       0.04468234 -0.031335685 -0.58361804 0.48615482
000280 fe f3 df be 35 e5 d7 bd c3 c0 60 3d f4 aa 86 be
       -0.4374084 -0.10541765 0.054871332 -0.26302302
000290 41 7f 4e 3d 12 47 38 bc 7a f8 08 be 48 bc 93 be
       0.050414328 -0.011247413 -0.13376036 -0.28854585
0002a0 9d 19 8f bc da 99 b1 be 6b 81 0c 3f 06 b6 14 bf
       -0.017468268 -0.34687692 0.54884976 -0.58090246
0002b0 76 ab cb be 53 33 0c 3f 85 89 0b 3d 23 af ac 3e
       -0.39779252 0.54765815 0.034066696 0.3372737
0002c0 e1 cf 8b be 80 39 0b 3e 51 ec 53 be f1 68 1a bd
       -0.27307037 0.13596153 -0.20695616 -0.037697736
0002d0 ce 2e 9a be 9e 38 1a 3f aa 68 3f 3e 67 af d0 3e
       -0.30113834 0.6024264 0.1869227 0.4075882
0002e0 e5 e3 8f be 20 68 c2 be 72 e7 51 bd f3 c8 9e be
       -0.28103557 -0.37970066 -0.051246114 -0.31012687
0002f0 a4 05 5d be 40 69 80 3e f9 1e 73 bd a8 ca cd 3f
       -0.21584183 0.250803 -0.05935571 1.6077471
000300 67 7d 34 be 85 d6 17 3f 70 aa 1b be e4 6d 18 be
       -0.17625962 0.59311706 -0.15201735 -0.1488567
000310 4b a6 c4 be 2e 29 97 be cc 9c f9 3e a8 c7 65 3e
       -0.3840812 -0.29523605 0.4875244 0.22439444
000320 96 61 62 bc 20 36 64 3d be 0a 6d be c6 a1 12 bf
       -0.013817212 0.05571568 -0.23148629 -0.57278097
000330 d3 02 20 be 29 c0 ea 3e 84 5c 46 bd 1a 0a a2 3e
       -0.15626077 0.45849732 -0.048428074 0.31648332
000340 70 ef 80 bd b4 c1 a3 be a3 40 98 be ea 2e 09 bd
       -0.06295669 -0.3198372 -0.29736814 -0.033492006
000350 6b ef fe ba 00 06 0c bc 40 97 73 bb d4 24 c4 bc
       -0.0019450014 -0.008546352 -0.003716901 -0.023943342
000360 d8 90 50 bd 8c e9 03 bd f8 9d 68 bd 8c 30 64 bc
       -0.050919384 -0.03220515 -0.056791276 -0.01392759
000370 6d f2 6d bd 5a ae 85 bc 04 38 74 bd f0 ce bb 3c
       -0.058092523 -0.016318489 -0.059623733 0.022925824
000380 80 a9 ec ba b1 9a a7 3c 24 52 4a bc 10 2c 0c 3d
       -0.0018055886 0.020459505 -0.012348685 0.03422171
000390 20 0e d7 3c b2 27 02 3d b2 28 ea bc cc 91 80 bd
       0.026251853 0.031776138 -0.028583858 -0.062778085
0003a0 70 1d 56 3d a0 66 4d 3c aa dd 88 bc 74 31 bc 3c
       0.052274168 0.012536675 -0.01670726 0.0229728
0003b0 44 51 96 bc 67 71 4f 3d 20 4b 5a 3d 79 29 6a bd
       -0.018349297 0.05064526 0.0532943 -0.057168458
0003c0 9e 75 15 3d 98 5f fd 3c 41 26 16 3d 4d a9 22 bd
       0.03648912 0.030929372 0.036657576 -0.03971224
0003d0 4f e6 e1 3e 31 73 d8 3d 8a dc 8b be f6 7b de 3d
       0.44121024 0.10568846 -0.27316695 0.108634874
0003e0 4a 3d cf 3d 45 f3 9c 3e 2e 51 a4 bd de 4a 3b 3d
       0.10119112 0.3065435 -0.08023296 0.045725696
0003f0 c7 98 b6 3e e0 a0 f9 3e f1 1b 89 3e e7 14 12 3d
       0.35663435 0.4875555 0.2677913 0.035664465

bias f4 [18]
000000 00 f8 d5 3e 06 0e df 3d f2 9c f2 3d 82 ce 32 3e
       0.4179077 0.10891347 0.11846341 0.17461589
000010 19 a4 cc be 65 1e 16 3d ee c7 a0 3e a4 19 83 bd
       -0.39968947 0.03665008 0.31402534 -0.06401375
000020 53 7c 7a 3e eb 36 04 3f d5 13 05 3d 9a f0 91 bf
       0.24461488 0.516463 0.032489616 -1.1401551
000030 4e af 85 bc 86 57 9c be e7 49 94 bd ed f6 37 3f
       -0.016318943 -0.30535525 -0.07240658 0.71861154
000040 d8 0d f8 be e4 50 c2 be
       -0.48448062 -0.3795234
